…
ial Revision: D23416698\n\nfbshipit-source-id: bf7c494f33836601f5f380c03a0910f419c2e62b", "pr_number": "43848", "files_changed": ["caffe2/opt/custom/freeze_quantization_params.cc"], "labels": ["fb-exported"]}, "1390cad2d8": {"title": "[NNC] Hook up registerizer to Cuda codegen [2/x] (#42878)", "body": "Summary:\nInsert the registerizer into the Cuda Codegen pass list, to enable scalar replacement and close the gap in simple reduction performance.\n\nFirst up the good stuff, benchmark before:\n```\n          Column sum          Caffe2             NNC          Simple          Better\n           (10, 100)          5.7917          9.7037          6.9386          6.0448\n          (100, 100)          5.9338          14.972          7.1139          6.3254\n        (100, 10000)          21.453          741.54          145.74          12.555\n        (1000, 1000)          8.0678          122.75          22.833          9.0778\n\n             Row sum          Caffe2             NNC          Simple          Better\n           (10, 100)          5.4502          7.9661          6.1469          5.5587\n          (100, 100)          5.7613          13.897           21.49          5.5808\n        (100, 10000)          21.702          82.398          75.462          22.793\n        (1000, 1000)          22.527             129          176.51          22.517\n\n```\n\nAfter:\n```\n          Column sum          Caffe2             NNC          Simple          Better\n           (10, 100)          6.0458          9.4966          7.1094           6.056\n          (100, 100)          5.9299          9.1482          7.1693           6.593\n        (100, 10000)          21.739          121.97          162.63          14.376\n        (1000, 1000)          9.2374           29.01          26.883          10.127\n\n             Row sum          Caffe2             NNC          Simple          Better\n           (10, 100)          5.9773          8.1792          7.2307          5.8941\n          (100, 100)          6.1456          9.3155          24.563          5.8163\n        (100, 10000)          25.384          30.212          88.531          27.185\n        (1000, 1000)          26.517          32.702          209.31          26.537\n```\n\nSpeedup about 3-8x depending on the size of the data (increasing with bigger inputs).\n\nThe gap between NNC and simple is closed or eliminated - remaining issue appears to be kernel launch overhead. Next up is getting us closer to the _Better_ kernel.\n\nIt required a lot of refactoring and bug fixes on the way:\n* Refactored flattening
…
   - [x]  unittests\n    - [x]  update softmax documentation\n    - [x]  autograd support\n- [x]  sparse log_softmax\n    - [x]  CUDA C++ implementation\n    - [x]  unittests\n    - [x]  update log_softmax documentation\n    - [x]  autograd support\n\nHere are some benchmark (script is [here](https://gist.github.com/aocsa/fbc1827b3e49901512a33ba96092cbc1)) results for `torch.sparse.softmax and torch.softmax`,  using CPU and GPU, values are float64 scalars, timing repeat is 1000:\n\n| size         | density | sparse CUDA | sparse CPU |\n|--------------|---------|-------------|------------|\n|  (32, 10000) |   0.01  |    380.2    |    687.5   |\n| (32, 10000)  | 0.05    | 404.3       | 2357.9     |\n| (32, 10000)  | 0.1     | 405.9       | 3677.2     |\n| (512, 10000) | 0.01    | 438.0       | 5443.4     |\n| (512, 10000) | 0.05    | 888.1       | 24485.0    |\n| (512, 10000) | 0.1     | 1921.3      | 45340.5    |\n\n| size         | density | dense CUDA | dense CPU |\n|--------------|---------|-------------|------------|\n|  (32, 10000) |   0.01  |     23.6    |   1943.2   |\n| (32, 10000)  | 0.05    | 23.6        | 1954.0     |\n| (32, 10000)  | 0.1     | 23.5        | 1950.0     |\n| (512, 10000) | 0.01    | 639.3       | 39797.9    |\n| (512, 10000) | 0.05    | 640.3       | 39374.4    |\n| (512, 10000) | 0.1     | 639.6       | 39192.3    |\n\nTimes are in microseconds (us).\n\nQuick note:  I updated the performance test again.\n\nPull Request resolved: https://github.com/pytorch/pytorch/pull/42307\n\nReviewed By: ngimel\n\nDifferential Revision: D23774427\n\nPulled By: mruberry\n\nfbshipit-source-id: bfabf726075b39dde544c10249f27ae1871f82c7", "pr_number": "42307", "files_changed": ["aten/src/ATen/
…
